…
Fri 05 Jul 2024 16:29:39 INFO 
====Testing====
baby
The number of users: 19445
Average actions of users: 1.1150424273592183
The number of items: 5549
Average actions of items: 3.907370697422959
The number of inters: 21682
The sparsity of the dataset: 99.97990552482683%
Fri 05 Jul 2024 16:29:42 INFO 

=================================


Fri 05 Jul 2024 16:29:43 INFO =========1/1: Parameters:['reg_weight', 'learning_rate', 'dropout', 'cl_weight', 'epsilon', 'lambda1', 'pvn_weight', 'seed']=(0.001, 0.0001, 0.5, 0.005, 5, 0.001, 0.01, 999)=======
Fri 05 Jul 2024 16:29:46 INFO MIN(
  (mlp): Linear(in_features=128, out_features=128, bias=True)
  (image_embedding): Embedding(7050, 4096)
  (image_trs): Linear(in_features=4096, out_features=64, bias=True)
  (text_embedding): Embedding(7050, 384)
  (text_trs): Linear(in_features=384, out_features=64, bias=True)
  (MLP_user): Linear(in_features=128, out_features=64, bias=True)
  (v_mlp): MLP_layer(
    (MLP): Linear(in_features=4096, out_features=256, bias=True)
    (MLP_1): Linear(in_features=256, out_features=64, bias=True)
  )
  (v_gcn): GCN(
    (MLP): Linear(in_features=4096, out_features=256, bias=True)
    (MLP_1): Linear(in_features=256, out_features=64, bias=True)
    (conv_embed_1): Base_gcn(64, 64)
  )
  (ori_v_gcn): GCN_ori(
    (MLP): Linear(in_features=4096, out_features=256, bias=True)
    (MLP_1): Linear(in_features=256, out_features=64, bias=True)
    (conv_embed_1): Base_gcn(64, 64)
  )
  (v_gcn_n1): GCN(
    (MLP): Linear(in_features=4096, out_features=256, bias=True)
    (MLP_1): Linear(in_features=256, out_features=64, bias=True)
    (conv_embed_1): Base_gcn(64, 64)
  )
  (v_gcn_n2): GCN(
    (MLP): Linear(in_features=4096, out_features=256, bias=True)
    (MLP_1): Linear(in_features=256, out_features=64, bias=True)
    (conv_embed_1): Base_gcn(64, 64)
  )
  (t_mlp): MLP_layer(
    (MLP): Linear(in_features=384, out_features=256, bias=True)
    (MLP_1): Linear(in_features=256, out_features=64, bias=True)
  )
  (t_gcn): GCN(
    (MLP): Linear(in_features=384, out_features=256, bias=True)
    (MLP_1): Linear(in_features=256, out_features=64, bias=True)
    (conv_embed_1): Base_gcn(64, 64)
  )
  (ori_t_gcn): GCN_ori(
    (MLP): Linear(in_features=384, out_features=256, bias=True)
    (MLP_1): Linear(in_features=256, out_features=64, bias=True)
    (conv_embed_1): Base_gcn(64, 64)
  )
  (t_gcn_n1): GCN(
    (MLP): Linear(in_features=384, out_features=256, bias=True)
    (MLP_1): Linear(in_features=256, out_features=64, bias=True)
    (conv_embed_1): Base_gcn(64, 64)
  )
  (t_gcn_n2): GCN(
    (MLP): Linear(in_features=384, out_features=256, bias=True)
    (MLP_1): Linear(in_features=256, out_features=64, bias=True)
    (conv_embed_1): Base_gcn(64, 64)
  )
  (f_gcn): GCN(
    (MLP): Linear(in_features=384, out_features=256, bias=True)
    (MLP_1): Linear(in_features=256, out_features=64, bias=True)
    (conv_embed_1): Base_gcn(64, 64)
  )
  (ori_f_gcn): GCN_ori(
    (MLP): Linear(in_features=384, out_features=256, bias=True)
    (MLP_1): Linear(in_features=256, out_features=64, bias=True)
    (conv_embed_1): Base_gcn(64, 64)
  )
  (id_gcn): GCN(
    (MLP): Linear(in_features=64, out_features=256, bias=True)
    (MLP_1): Linear(in_features=256, out_features=64, bias=True)
    (conv_embed_1): Base_gcn(64, 64)
  )
  (gata): GatedUnitCorrected(
    (mlp1): MLP(
      (dropout): Dropout(p=0.5, inplace=False)
      (activate): LeakyReLU(negative_slope=0.01)
      (mlp_1): Linear(in_features=128, out_features=256, bias=True)
      (mlp_2): Linear(in_features=256, out_features=128, bias=True)
    )
    (mlp2): MLP(
      (dropout): Dropout(p=0.5, inplace=False)
      (activate): LeakyReLU(negative_slope=0.01)
      (mlp_1): Linear(in_features=128, out_features=256, bias=True)
      (mlp_2): Linear(in_features=256, out_features=128, bias=True)
    )
  )
)
Trainable parameters: 48690920
Fri 05 Jul 2024 16:29:49 INFO epoch 0 training [time: 2.64s, train loss: 37.3057]
Fri 05 Jul 2024 16:29:53 INFO epoch 0 evaluating [time: 1.85s, valid_score: 0.036200]
Fri 05 Jul 2024 16:29:53 INFO valid result: 
recall@5: 0.0230    recall@10: 0.0362    recall@20: 0.0565    recall@50: 0.1047    ndcg@5: 0.0148    ndcg@10: 0.0191    ndcg@20: 0.0242    ndcg@50: 0.0338    precision@5: 0.0048    precision@10: 0.0038    precision@20: 0.0030    precision@50: 0.0022    map@5: 0.0119    map@10: 0.0137    map@20: 0.0150    map@50: 0.0165    
…
