…
Fri 05 Jul 2024 16:40:11 INFO 
====Testing====
sports
The number of users: 35598
Average actions of users: 1.1244732850160122
The number of items: 13738
Average actions of items: 2.9137429028970736
The number of inters: 40029
The sparsity of the dataset: 99.99181486908563%
Fri 05 Jul 2024 16:40:18 INFO 

=================================


Fri 05 Jul 2024 16:40:19 INFO =========1/1: Parameters:['reg_weight', 'learning_rate', 'dropout', 'cl_weight', 'epsilon', 'lambda1', 'pvn_weight', 'seed']=(0.001, 0.0001, 0.5, 0.01, 2, 0.05, 0.01, 999)=======
Fri 05 Jul 2024 16:43:36 INFO MIN(
  (mlp): Linear(in_features=128, out_features=128, bias=True)
  (image_embedding): Embedding(18357, 4096)
  (image_trs): Linear(in_features=4096, out_features=64, bias=True)
  (text_embedding): Embedding(18357, 384)
  (text_trs): Linear(in_features=384, out_features=64, bias=True)
  (MLP_user): Linear(in_features=128, out_features=64, bias=True)
  (v_mlp): MLP_layer(
    (MLP): Linear(in_features=4096, out_features=256, bias=True)
    (MLP_1): Linear(in_features=256, out_features=64, bias=True)
  )
  (v_gcn): GCN(
    (MLP): Linear(in_features=4096, out_features=256, bias=True)
    (MLP_1): Linear(in_features=256, out_features=64, bias=True)
    (conv_embed_1): Base_gcn(64, 64)
  )
  (ori_v_gcn): GCN_ori(
    (MLP): Linear(in_features=4096, out_features=256, bias=True)
    (MLP_1): Linear(in_features=256, out_features=64, bias=True)
    (conv_embed_1): Base_gcn(64, 64)
  )
  (v_gcn_n1): GCN(
    (MLP): Linear(in_features=4096, out_features=256, bias=True)
    (MLP_1): Linear(in_features=256, out_features=64, bias=True)
    (conv_embed_1): Base_gcn(64, 64)
  )
  (v_gcn_n2): GCN(
    (MLP): Linear(in_features=4096, out_features=256, bias=True)
    (MLP_1): Linear(in_features=256, out_features=64, bias=True)
    (conv_embed_1): Base_gcn(64, 64)
  )
  (t_mlp): MLP_layer(
    (MLP): Linear(in_features=384, out_features=256, bias=True)
    (MLP_1): Linear(in_features=256, out_features=64, bias=True)
  )
  (t_gcn): GCN(
    (MLP): Linear(in_features=384, out_features=256, bias=True)
    (MLP_1): Linear(in_features=256, out_features=64, bias=True)
    (conv_embed_1): Base_gcn(64, 64)
  )
  (ori_t_gcn): GCN_ori(
    (MLP): Linear(in_features=384, out_features=256, bias=True)
    (MLP_1): Linear(in_features=256, out_features=64, bias=True)
    (conv_embed_1): Base_gcn(64, 64)
  )
  (t_gcn_n1): GCN(
    (MLP): Linear(in_features=384, out_features=256, bias=True)
    (MLP_1): Linear(in_features=256, out_features=64, bias=True)
    (conv_embed_1): Base_gcn(64, 64)
  )
  (t_gcn_n2): GCN(
    (MLP): Linear(in_features=384, out_features=256, bias=True)
    (MLP_1): Linear(in_features=256, out_features=64, bias=True)
    (conv_embed_1): Base_gcn(64, 64)
  )
  (f_gcn): GCN(
    (MLP): Linear(in_features=384, out_features=256, bias=True)
    (MLP_1): Linear(in_features=256, out_features=64, bias=True)
    (conv_embed_1): Base_gcn(64, 64)
  )
  (ori_f_gcn): GCN_ori(
    (MLP): Linear(in_features=384, out_features=256, bias=True)
    (MLP_1): Linear(in_features=256, out_features=64, bias=True)
    (conv_embed_1): Base_gcn(64, 64)
  )
  (id_gcn): GCN(
    (MLP): Linear(in_features=64, out_features=256, bias=True)
    (MLP_1): Linear(in_features=256, out_features=64, bias=True)
    (conv_embed_1): Base_gcn(64, 64)
  )
  (gata): GatedUnitCorrected(
    (mlp1): MLP(
      (dropout): Dropout(p=0.5, inplace=False)
      (activate): LeakyReLU(negative_slope=0.01)
      (mlp_1): Linear(in_features=128, out_features=256, bias=True)
      (mlp_2): Linear(in_features=256, out_features=128, bias=True)
    )
    (mlp2): MLP(
      (dropout): Dropout(p=0.5, inplace=False)
      (activate): LeakyReLU(negative_slope=0.01)
      (mlp_1): Linear(in_features=128, out_features=256, bias=True)
      (mlp_2): Linear(in_features=256, out_features=128, bias=True)
    )
  )
)
Trainable parameters: 108427490
Fri 05 Jul 2024 16:43:44 INFO epoch 0 training [time: 7.06s, train loss: 104.8093]
Fri 05 Jul 2024 16:43:50 INFO epoch 0 evaluating [time: 3.30s, valid_score: 0.052400]
Fri 05 Jul 2024 16:43:50 INFO valid result: 
recall@5: 0.0323    recall@10: 0.0524    recall@20: 0.0822    recall@50: 0.1369    ndcg@5: 0.0213    ndcg@10: 0.0278    ndcg@20: 0.0353    ndcg@50: 0.0463    precision@5: 0.0068    precision@10: 0.0055    precision@20: 0.0043    precision@50: 0.0029    map@5: 0.0174    map@10: 0.0200    map@20: 0.0220    map@50: 0.0238    
…
